…
          optim: sgd
          dropout: 0.5
          print_freq: 5
          resume: 
          evaluate: False
          half: True
          save_every: 10
          gpus: 1
          frozen_layers: 3
DEVICE: cuda
GPU Id(s) being used: 1
==> Building model for resnet20 ...
==> Initializing model with pre-trained parameters ...
==> Load pretrained model form ../pretrained_models/ideal/resnet20qfp_cifar10_half_quant_all_w7b_a7b_best.pth.tar ...
Original model accuracy: 89.29999542236328
ResNet_cifar(
  (conv4): QConv2d(16, 16, kernel_size=(3, 3), stride=(1, 1), padding=(1, 1), bias=False)
  (bn4): BatchNorm2d(16, eps=1e-05, momentum=0.1, affine=True, track_running_stats=True)
  (relu4): ReLU(inplace=True)
  (conv5): QConv2d(16, 16, kernel_size=(3, 3), stride=(1, 1), padding=(1, 1), bias=False)
  (bn5): BatchNorm2d(16, eps=1e-05, momentum=0.1, affine=True, track_running_stats=True)
  (relu5): ReLU(inplace=True)
  (conv6): QConv2d(16, 16, kernel_size=(3, 3), stride=(1, 1), padding=(1, 1), bias=False)
  (bn6): BatchNorm2d(16, eps=1e-05, momentum=0.1, affine=True, track_running_stats=True)
  (relu6): ReLU(inplace=True)
  (conv7): QConv2d(16, 16, kernel_size=(3, 3), stride=(1, 1), padding=(1, 1), bias=False)
  (bn7): BatchNorm2d(16, eps=1e-05, momentum=0.1, affine=True, track_running_stats=True)
  (relu7): ReLU(inplace=True)
  (conv8): QConv2d(16, 32, kernel_size=(3, 3), stride=(2, 2), padding=(1, 1), bias=False)
  (bn8): BatchNorm2d(32, eps=1e-05, momentum=0.1, affine=True, track_running_stats=True)
  (relu8): ReLU(inplace=True)
  (conv9): QConv2d(32, 32, kernel_size=(3, 3), stride=(1, 1), padding=(1, 1), bias=False)
  (bn9): BatchNorm2d(32, eps=1e-05, momentum=0.1, affine=True, track_running_stats=True)
  (resconv1): Sequential(
    (0): QConv2d(16, 32, kernel_size=(1, 1), stride=(2, 2), bias=False)
    (1): BatchNorm2d(32, eps=1e-05, momentum=0.1, affine=True, track_running_stats=True)
  )
  (relu9): ReLU(inplace=True)
  (conv10): QConv2d(32, 32, kernel_size=(3, 3), stride=(1, 1), padding=(1, 1), bias=False)
  (bn10): BatchNorm2d(32, eps=1e-05, momentum=0.1, affine=True, track_running_stats=True)
  (relu10): ReLU(inplace=True)
  (conv11): QConv2d(32, 32, kernel_size=(3, 3), stride=(1, 1), padding=(1, 1), bias=False)
  (bn11): BatchNorm2d(32, eps=1e-05, momentum=0.1, affine=True, track_running_stats=True)
  (relu11): ReLU(inplace=True)
  (conv12): QConv2d(32, 32, kernel_size=(3, 3), stride=(1, 1), padding=(1, 1), bias=False)
  (bn12): BatchNorm2d(32, eps=1e-05, momentum=0.1, affine=True, track_running_stats=True)
  (relu12): ReLU(inplace=True)
  (conv13): QConv2d(32, 32, kernel_size=(3, 3), stride=(1, 1), padding=(1, 1), bias=False)
  (bn13): BatchNorm2d(32, eps=1e-05, momentum=0.1, affine=True, track_running_stats=True)
  (relu13): ReLU(inplace=True)
  (conv14): QConv2d(32, 64, kernel_size=(3, 3), stride=(2, 2), padding=(1, 1), bias=False)
  (bn14): BatchNorm2d(64, eps=1e-05, momentum=0.1, affine=True, track_running_stats=True)
  (relu14): ReLU(inplace=True)
  (conv15): QConv2d(64, 64, kernel_size=(3, 3), stride=(1, 1), padding=(1, 1), bias=False)
  (bn15): BatchNorm2d(64, eps=1e-05, momentum=0.1, affine=True, track_running_stats=True)
  (resconv2): Sequential(
    (0): QConv2d(32, 64, kernel_size=(1, 1), stride=(2, 2), bias=False)
    (1): BatchNorm2d(64, eps=1e-05, momentum=0.1, affine=True, track_running_stats=True)
  )
  (relu15): ReLU(inplace=True)
  (conv16): QConv2d(64, 64, kernel_size=(3, 3), stride=(1, 1), padding=(1, 1), bias=False)
  (bn16): BatchNorm2d(64, eps=1e-05, momentum=0.1, affine=True, track_running_stats=True)
  (relu16): ReLU(inplace=True)
  (conv17): QConv2d(64, 64, kernel_size=(3, 3), stride=(1, 1), padding=(1, 1), bias=False)
  (bn17): BatchNorm2d(64, eps=1e-05, momentum=0.1, affine=True, track_running_stats=True)
  (relu17): ReLU(inplace=True)
  (conv18): QConv2d(64, 64, kernel_size=(3, 3), stride=(1, 1), padding=(1, 1), bias=False)
  (bn18): BatchNorm2d(64, eps=1e-05, momentum=0.1, affine=True, track_running_stats=True)
  (relu18): ReLU(inplace=True)
  (conv19): QConv2d(64, 64, kernel_size=(3, 3), stride=(1, 1), padding=(1, 1), bias=False)
  (bn19): BatchNorm2d(64, eps=1e-05, momentum=0.1, affine=True, track_running_stats=True)
  (relu19): ReLU(inplace=True)
  (avgpool): AvgPool2d(kernel_size=8, stride=8, padding=0)
  (bn20): BatchNorm1d(64, eps=1e-05, momentum=0.1, affine=True, track_running_stats=True)
  (fc): QLinear(in_features=64, out_features=10, bias=False)
  (bn21): BatchNorm1d(10, eps=1e-05, momentum=0.1, affine=True, track_running_stats=True)
  (logsoftmax): LogSoftmax(dim=1)
)
 * Prec@1 10.000 Prec@5 49.990 Loss inf
Pre-trained Prec@1 with 3 layers frozen: 10.0 	 Loss: inf

Starting training on SRAM layers...
Epoch: [0][38/196]	LR: 0.1	Loss 0.8110 (1.1203)	Prec@1 72.656 (62.039)	
Epoch: [0][77/196]	LR: 0.1	Loss 0.7163 (0.9590)	Prec@1 73.438 (67.122)	
Epoch: [0][116/196]	LR: 0.1	Loss 0.6855 (0.8666)	Prec@1 72.266 (70.166)	
…
