…
          frozen_layers: 11
Savedir:  ../pretrained_models/frozen/x64-8b/rram/cifar10/resnet18
DEVICE: cuda
GPU Id(s) being used: 2
==> Building model for resnet18 ...
==> Initializing model with pre-trained parameters (except classifier)...
==> Load pretrained model form ../pretrained_models/ideal/resnet18fp_imnet.pth.tar ...
Original model accuracy on ImageNet: 69.93189239501953
Train path:  /home/nano01/a/esoufler/activations/x64-8b/rram/one_batch/cifar10/resnet18/train/relu11
Test path:  /home/nano01/a/esoufler/activations/x64-8b/rram/one_batch/cifar10/resnet18/test/relu11
ResNet18(
  (conv12): Conv2d(256, 256, kernel_size=(3, 3), stride=(1, 1), padding=(1, 1), bias=False)
  (bn12): BatchNorm2d(256, eps=1e-05, momentum=0.1, affine=True, track_running_stats=True)
  (relu12): ReLU(inplace=True)
  (conv13): Conv2d(256, 256, kernel_size=(3, 3), stride=(1, 1), padding=(1, 1), bias=False)
  (bn13): BatchNorm2d(256, eps=1e-05, momentum=0.1, affine=True, track_running_stats=True)
  (relu13): ReLU(inplace=True)
  (conv14): Conv2d(256, 512, kernel_size=(3, 3), stride=(2, 2), padding=(1, 1), bias=False)
  (bn14): BatchNorm2d(512, eps=1e-05, momentum=0.1, affine=True, track_running_stats=True)
  (resconv3): Sequential(
    (0): Conv2d(256, 512, kernel_size=(1, 1), stride=(2, 2), bias=False)
    (1): BatchNorm2d(512, eps=1e-05, momentum=0.1, affine=True, track_running_stats=True)
    (2): ReLU(inplace=True)
  )
  (relu14): ReLU(inplace=True)
  (conv15): Conv2d(512, 512, kernel_size=(3, 3), stride=(1, 1), padding=(1, 1), bias=False)
  (bn15): BatchNorm2d(512, eps=1e-05, momentum=0.1, affine=True, track_running_stats=True)
  (relu15): ReLU(inplace=True)
  (conv16): Conv2d(512, 512, kernel_size=(3, 3), stride=(1, 1), padding=(1, 1), bias=False)
  (bn16): BatchNorm2d(512, eps=1e-05, momentum=0.1, affine=True, track_running_stats=True)
  (relu16): ReLU(inplace=True)
  (conv17): Conv2d(512, 512, kernel_size=(3, 3), stride=(1, 1), padding=(1, 1), bias=False)
  (bn17): BatchNorm2d(512, eps=1e-05, momentum=0.1, affine=True, track_running_stats=True)
  (relu17): ReLU(inplace=True)
  (avgpool): AvgPool2d(kernel_size=7, stride=7, padding=0)
  (bn18): BatchNorm1d(512, eps=1e-05, momentum=0.1, affine=True, track_running_stats=True)
  (fc): Linear(in_features=512, out_features=10, bias=False)
  (bn19): BatchNorm1d(10, eps=1e-05, momentum=0.1, affine=True, track_running_stats=True)
  (logsoftmax): LogSoftmax(dim=1)
)
 * Prec@1 12.600 Prec@5 49.830 Loss 2.3145
Avg Loading time: 0.0177 seconds
Avg Batch time: 0.0519 seconds

Pre-trained Prec@1 with 11 layers frozen: 12.59999942779541 	 Loss: 2.314453125

Starting training on SRAM layers...
Epoch: [0][77/391]	LR: 0.1	DT: 0.000 (0.012)	BT: 0.052 (0.063)	Loss 0.4214 (0.6749)	Prec@1 88.281 (79.177)	
…
          frozen_layers: 13
Savedir:  ../pretrained_models/frozen/x64-8b/rram/cifar10/resnet18
DEVICE: cuda
GPU Id(s) being used: 2
==> Building model for resnet18 ...
==> Initializing model with pre-trained parameters (except classifier)...
==> Load pretrained model form ../pretrained_models/ideal/resnet18fp_imnet.pth.tar ...
Original model accuracy on ImageNet: 69.93189239501953
Train path:  /home/nano01/a/esoufler/activations/x64-8b/rram/one_batch/cifar10/resnet18/train/relu13
Test path:  /home/nano01/a/esoufler/activations/x64-8b/rram/one_batch/cifar10/resnet18/test/relu13
ResNet18(
  (conv14): Conv2d(256, 512, kernel_size=(3, 3), stride=(2, 2), padding=(1, 1), bias=False)
  (bn14): BatchNorm2d(512, eps=1e-05, momentum=0.1, affine=True, track_running_stats=True)
  (resconv3): Sequential(
    (0): Conv2d(256, 512, kernel_size=(1, 1), stride=(2, 2), bias=False)
    (1): BatchNorm2d(512, eps=1e-05, momentum=0.1, affine=True, track_running_stats=True)
    (2): ReLU(inplace=True)
  )
  (relu14): ReLU(inplace=True)
  (conv15): Conv2d(512, 512, kernel_size=(3, 3), stride=(1, 1), padding=(1, 1), bias=False)
  (bn15): BatchNorm2d(512, eps=1e-05, momentum=0.1, affine=True, track_running_stats=True)
  (relu15): ReLU(inplace=True)
  (conv16): Conv2d(512, 512, kernel_size=(3, 3), stride=(1, 1), padding=(1, 1), bias=False)
  (bn16): BatchNorm2d(512, eps=1e-05, momentum=0.1, affine=True, track_running_stats=True)
  (relu16): ReLU(inplace=True)
  (conv17): Conv2d(512, 512, kernel_size=(3, 3), stride=(1, 1), padding=(1, 1), bias=False)
  (bn17): BatchNorm2d(512, eps=1e-05, momentum=0.1, affine=True, track_running_stats=True)
  (relu17): ReLU(inplace=True)
  (avgpool): AvgPool2d(kernel_size=7, stride=7, padding=0)
  (bn18): BatchNorm1d(512, eps=1e-05, momentum=0.1, affine=True, track_running_stats=True)
  (fc): Linear(in_features=512, out_features=10, bias=False)
  (bn19): BatchNorm1d(10, eps=1e-05, momentum=0.1, affine=True, track_running_stats=True)
  (logsoftmax): LogSoftmax(dim=1)
)
 * Prec@1 9.950 Prec@5 55.750 Loss 2.2988
Avg Loading time: 0.0700 seconds
Avg Batch time: 0.0930 seconds

Pre-trained Prec@1 with 13 layers frozen: 9.949999809265137 	 Loss: 2.298828125

Starting training on SRAM layers...
Epoch: [0][77/391]	LR: 0.1	DT: 0.000 (0.495)	BT: 0.040 (0.538)	Loss 0.5430 (0.6669)	Prec@1 82.031 (79.497)	
…
          frozen_layers: 15
Savedir:  ../pretrained_models/frozen/x64-8b/rram/cifar10/resnet18
DEVICE: cuda
GPU Id(s) being used: 2
==> Building model for resnet18 ...
==> Initializing model with pre-trained parameters (except classifier)...
==> Load pretrained model form ../pretrained_models/ideal/resnet18fp_imnet.pth.tar ...
Original model accuracy on ImageNet: 69.93189239501953
Train path:  /home/nano01/a/esoufler/activations/x64-8b/rram/one_batch/cifar10/resnet18/train/relu15
Test path:  /home/nano01/a/esoufler/activations/x64-8b/rram/one_batch/cifar10/resnet18/test/relu15
ResNet18(
  (conv16): Conv2d(512, 512, kernel_size=(3, 3), stride=(1, 1), padding=(1, 1), bias=False)
  (bn16): BatchNorm2d(512, eps=1e-05, momentum=0.1, affine=True, track_running_stats=True)
  (relu16): ReLU(inplace=True)
  (conv17): Conv2d(512, 512, kernel_size=(3, 3), stride=(1, 1), padding=(1, 1), bias=False)
  (bn17): BatchNorm2d(512, eps=1e-05, momentum=0.1, affine=True, track_running_stats=True)
  (relu17): ReLU(inplace=True)
  (avgpool): AvgPool2d(kernel_size=7, stride=7, padding=0)
  (bn18): BatchNorm1d(512, eps=1e-05, momentum=0.1, affine=True, track_running_stats=True)
  (fc): Linear(in_features=512, out_features=10, bias=False)
  (bn19): BatchNorm1d(10, eps=1e-05, momentum=0.1, affine=True, track_running_stats=True)
  (logsoftmax): LogSoftmax(dim=1)
)
 * Prec@1 10.110 Prec@5 49.260 Loss 2.3262
Avg Loading time: 0.0566 seconds
Avg Batch time: 0.0833 seconds

Pre-trained Prec@1 with 15 layers frozen: 10.109999656677246 	 Loss: 2.326171875

Starting training on SRAM layers...
Epoch: [0][77/391]	LR: 0.1	DT: 0.003 (0.389)	BT: 0.028 (0.404)	Loss 0.4307 (0.7374)	Prec@1 85.156 (76.653)	
…
