…
Savedir:  ../pretrained_models/frozen/x64-8b/sram/cifar10/resnet18
DEVICE: cuda
GPU Id(s) being used: 1
==> Building model for resnet18 ...
==> Initializing model with pre-trained parameters (except classifier)...
==> Load pretrained model form ../pretrained_models/ideal/resnet18fp_imnet.pth.tar ...
Original model accuracy on ImageNet: 69.93189239501953
Train path:  /home/nano01/a/esoufler/activations/x64-8b/sram/one_batch/cifar10/resnet18/train/relu7
Test path:  /home/nano01/a/esoufler/activations/x64-8b/sram/one_batch/cifar10/resnet18/test/relu7
ResNet18(
  (conv8): QConv2d(128, 128, kernel_size=(3, 3), stride=(1, 1), padding=(1, 1), bias=False)
  (bn8): BatchNorm2d(128, eps=1e-05, momentum=0.1, affine=True, track_running_stats=True)
  (relu8): ReLU(inplace=True)
  (conv9): QConv2d(128, 128, kernel_size=(3, 3), stride=(1, 1), padding=(1, 1), bias=False)
  (bn9): BatchNorm2d(128, eps=1e-05, momentum=0.1, affine=True, track_running_stats=True)
  (relu9): ReLU(inplace=True)
  (conv10): QConv2d(128, 256, kernel_size=(3, 3), stride=(2, 2), padding=(1, 1), bias=False)
  (bn10): BatchNorm2d(256, eps=1e-05, momentum=0.1, affine=True, track_running_stats=True)
  (resconv2): Sequential(
    (0): QConv2d(128, 256, kernel_size=(1, 1), stride=(2, 2), bias=False)
    (1): BatchNorm2d(256, eps=1e-05, momentum=0.1, affine=True, track_running_stats=True)
    (2): ReLU(inplace=True)
  )
  (relu10): ReLU(inplace=True)
  (conv11): QConv2d(256, 256, kernel_size=(3, 3), stride=(1, 1), padding=(1, 1), bias=False)
  (bn11): BatchNorm2d(256, eps=1e-05, momentum=0.1, affine=True, track_running_stats=True)
  (relu11): ReLU(inplace=True)
  (conv12): QConv2d(256, 256, kernel_size=(3, 3), stride=(1, 1), padding=(1, 1), bias=False)
  (bn12): BatchNorm2d(256, eps=1e-05, momentum=0.1, affine=True, track_running_stats=True)
  (relu12): ReLU(inplace=True)
  (conv13): QConv2d(256, 256, kernel_size=(3, 3), stride=(1, 1), padding=(1, 1), bias=False)
  (bn13): BatchNorm2d(256, eps=1e-05, momentum=0.1, affine=True, track_running_stats=True)
  (relu13): ReLU(inplace=True)
  (conv14): QConv2d(256, 512, kernel_size=(3, 3), stride=(2, 2), padding=(1, 1), bias=False)
  (bn14): BatchNorm2d(512, eps=1e-05, momentum=0.1, affine=True, track_running_stats=True)
  (resconv3): Sequential(
    (0): QConv2d(256, 512, kernel_size=(1, 1), stride=(2, 2), bias=False)
    (1): BatchNorm2d(512, eps=1e-05, momentum=0.1, affine=True, track_running_stats=True)
    (2): ReLU(inplace=True)
  )
  (relu14): ReLU(inplace=True)
  (conv15): QConv2d(512, 512, kernel_size=(3, 3), stride=(1, 1), padding=(1, 1), bias=False)
  (bn15): BatchNorm2d(512, eps=1e-05, momentum=0.1, affine=True, track_running_stats=True)
  (relu15): ReLU(inplace=True)
  (conv16): QConv2d(512, 512, kernel_size=(3, 3), stride=(1, 1), padding=(1, 1), bias=False)
  (bn16): BatchNorm2d(512, eps=1e-05, momentum=0.1, affine=True, track_running_stats=True)
  (relu16): ReLU(inplace=True)
  (conv17): QConv2d(512, 512, kernel_size=(3, 3), stride=(1, 1), padding=(1, 1), bias=False)
  (bn17): BatchNorm2d(512, eps=1e-05, momentum=0.1, affine=True, track_running_stats=True)
  (relu17): ReLU(inplace=True)
  (avgpool): AvgPool2d(kernel_size=7, stride=7, padding=0)
  (bn18): BatchNorm1d(512, eps=1e-05, momentum=0.1, affine=True, track_running_stats=True)
  (fc): QLinear(in_features=512, out_features=10, bias=False)
  (bn19): BatchNorm1d(10, eps=1e-05, momentum=0.1, affine=True, track_running_stats=True)
  (logsoftmax): LogSoftmax(dim=1)
)
 * Prec@1 9.640 Prec@5 53.180 Loss 2.2852
Avg Loading time: 10.4910 seconds
Avg Batch time: 12.8173 seconds

Pre-trained Prec@1 with 7 layers frozen: 9.639999389648438 	 Loss: 2.28515625

Starting training on SRAM layers...
Epoch: [0][77/391]	LR: 0.01	DT: 0.335 (13.347)	BT: 0.384 (13.399)	Loss 0.6162 (0.9904)	Prec@1 82.031 (73.858)	
…
