…
          loss: crossentropy
          optim: sgd
          dropout: 0.5
          print_freq: 5
          resume: 
          evaluate: False
          half: True
          save_every: 10
          gpus: 0
          frozen_layers: 1
DEVICE: cuda
GPU Id(s) being used: 0
==> Building model for resnet20 ...
==> Initializing model with pre-trained parameters ...
==> Load pretrained model form ../pretrained_models/ideal/resnet20fp_cifar100.pth.tar ...
Original model accuracy: 69.5999984741211
ResNet_cifar(
  (conv2): QConv2d(16, 16, kernel_size=(3, 3), stride=(1, 1), padding=(1, 1), bias=False)
  (bn2): BatchNorm2d(16, eps=1e-05, momentum=0.1, affine=True, track_running_stats=True)
  (relu2): ReLU(inplace=True)
  (conv3): QConv2d(16, 16, kernel_size=(3, 3), stride=(1, 1), padding=(1, 1), bias=False)
  (bn3): BatchNorm2d(16, eps=1e-05, momentum=0.1, affine=True, track_running_stats=True)
  (relu3): ReLU(inplace=True)
  (conv4): QConv2d(16, 16, kernel_size=(3, 3), stride=(1, 1), padding=(1, 1), bias=False)
  (bn4): BatchNorm2d(16, eps=1e-05, momentum=0.1, affine=True, track_running_stats=True)
  (relu4): ReLU(inplace=True)
  (conv5): QConv2d(16, 16, kernel_size=(3, 3), stride=(1, 1), padding=(1, 1), bias=False)
  (bn5): BatchNorm2d(16, eps=1e-05, momentum=0.1, affine=True, track_running_stats=True)
  (relu5): ReLU(inplace=True)
  (conv6): QConv2d(16, 16, kernel_size=(3, 3), stride=(1, 1), padding=(1, 1), bias=False)
  (bn6): BatchNorm2d(16, eps=1e-05, momentum=0.1, affine=True, track_running_stats=True)
  (relu6): ReLU(inplace=True)
  (conv7): QConv2d(16, 16, kernel_size=(3, 3), stride=(1, 1), padding=(1, 1), bias=False)
  (bn7): BatchNorm2d(16, eps=1e-05, momentum=0.1, affine=True, track_running_stats=True)
  (relu7): ReLU(inplace=True)
  (conv8): QConv2d(16, 32, kernel_size=(3, 3), stride=(2, 2), padding=(1, 1), bias=False)
  (bn8): BatchNorm2d(32, eps=1e-05, momentum=0.1, affine=True, track_running_stats=True)
  (relu8): ReLU(inplace=True)
  (conv9): QConv2d(32, 32, kernel_size=(3, 3), stride=(1, 1), padding=(1, 1), bias=False)
  (bn9): BatchNorm2d(32, eps=1e-05, momentum=0.1, affine=True, track_running_stats=True)
  (resconv1): Sequential(
    (0): QConv2d(16, 32, kernel_size=(1, 1), stride=(2, 2), bias=False)
    (1): BatchNorm2d(32, eps=1e-05, momentum=0.1, affine=True, track_running_stats=True)
  )
  (relu9): ReLU(inplace=True)
  (conv10): QConv2d(32, 32, kernel_size=(3, 3), stride=(1, 1), padding=(1, 1), bias=False)
  (bn10): BatchNorm2d(32, eps=1e-05, momentum=0.1, affine=True, track_running_stats=True)
  (relu10): ReLU(inplace=True)
  (conv11): QConv2d(32, 32, kernel_size=(3, 3), stride=(1, 1), padding=(1, 1), bias=False)
  (bn11): BatchNorm2d(32, eps=1e-05, momentum=0.1, affine=True, track_running_stats=True)
  (relu11): ReLU(inplace=True)
  (conv12): QConv2d(32, 32, kernel_size=(3, 3), stride=(1, 1), padding=(1, 1), bias=False)
  (bn12): BatchNorm2d(32, eps=1e-05, momentum=0.1, affine=True, track_running_stats=True)
  (relu12): ReLU(inplace=True)
  (conv13): QConv2d(32, 32, kernel_size=(3, 3), stride=(1, 1), padding=(1, 1), bias=False)
  (bn13): BatchNorm2d(32, eps=1e-05, momentum=0.1, affine=True, track_running_stats=True)
  (relu13): ReLU(inplace=True)
  (conv14): QConv2d(32, 64, kernel_size=(3, 3), stride=(2, 2), padding=(1, 1), bias=False)
  (bn14): BatchNorm2d(64, eps=1e-05, momentum=0.1, affine=True, track_running_stats=True)
  (relu14): ReLU(inplace=True)
  (conv15): QConv2d(64, 64, kernel_size=(3, 3), stride=(1, 1), padding=(1, 1), bias=False)
  (bn15): BatchNorm2d(64, eps=1e-05, momentum=0.1, affine=True, track_running_stats=True)
  (resconv2): Sequential(
    (0): QConv2d(32, 64, kernel_size=(1, 1), stride=(2, 2), bias=False)
    (1): BatchNorm2d(64, eps=1e-05, momentum=0.1, affine=True, track_running_stats=True)
  )
  (relu15): ReLU(inplace=True)
  (conv16): QConv2d(64, 64, kernel_size=(3, 3), stride=(1, 1), padding=(1, 1), bias=False)
  (bn16): BatchNorm2d(64, eps=1e-05, momentum=0.1, affine=True, track_running_stats=True)
  (relu16): ReLU(inplace=True)
  (conv17): QConv2d(64, 64, kernel_size=(3, 3), stride=(1, 1), padding=(1, 1), bias=False)
  (bn17): BatchNorm2d(64, eps=1e-05, momentum=0.1, affine=True, track_running_stats=True)
  (relu17): ReLU(inplace=True)
  (conv18): QConv2d(64, 64, kernel_size=(3, 3), stride=(1, 1), padding=(1, 1), bias=False)
  (bn18): BatchNorm2d(64, eps=1e-05, momentum=0.1, affine=True, track_running_stats=True)
  (relu18): ReLU(inplace=True)
  (conv19): QConv2d(64, 64, kernel_size=(3, 3), stride=(1, 1), padding=(1, 1), bias=False)
  (bn19): BatchNorm2d(64, eps=1e-05, momentum=0.1, affine=True, track_running_stats=True)
  (relu19): ReLU(inplace=True)
  (avgpool): AvgPool2d(kernel_size=8, stride=8, padding=0)
  (bn20): BatchNorm1d(64, eps=1e-05, momentum=0.1, affine=True, track_running_stats=True)
  (fc): QLinear(in_features=64, out_features=100, bias=False)
  (bn21): BatchNorm1d(100, eps=1e-05, momentum=0.1, affine=True, track_running_stats=True)
  (logsoftmax): LogSoftmax(dim=1)
)
 * Prec@1 68.870 Prec@5 90.340 Loss 1.1924
Pre-trained Prec@1 with 1 layers frozen: 68.8699951171875 	 Loss: 1.1923828125

Starting training on SRAM layers...
Epoch: [0][38/196]	LR: 0.1	Loss 1.6211 (1.3759)	Prec@1 57.812 (62.260)	
Epoch: [0][77/196]	LR: 0.1	Loss 1.6230 (1.5256)	Prec@1 52.734 (58.098)	
…
          loss: crossentropy
          optim: sgd
          dropout: 0.5
          print_freq: 5
          resume: 
          evaluate: False
          half: True
          save_every: 10
          gpus: 0
          frozen_layers: 3
DEVICE: cuda
GPU Id(s) being used: 0
==> Building model for resnet20 ...
==> Initializing model with pre-trained parameters ...
==> Load pretrained model form ../pretrained_models/ideal/resnet20fp_cifar100.pth.tar ...
Original model accuracy: 69.5999984741211
ResNet_cifar(
  (conv4): QConv2d(16, 16, kernel_size=(3, 3), stride=(1, 1), padding=(1, 1), bias=False)
  (bn4): BatchNorm2d(16, eps=1e-05, momentum=0.1, affine=True, track_running_stats=True)
  (relu4): ReLU(inplace=True)
  (conv5): QConv2d(16, 16, kernel_size=(3, 3), stride=(1, 1), padding=(1, 1), bias=False)
  (bn5): BatchNorm2d(16, eps=1e-05, momentum=0.1, affine=True, track_running_stats=True)
  (relu5): ReLU(inplace=True)
  (conv6): QConv2d(16, 16, kernel_size=(3, 3), stride=(1, 1), padding=(1, 1), bias=False)
  (bn6): BatchNorm2d(16, eps=1e-05, momentum=0.1, affine=True, track_running_stats=True)
  (relu6): ReLU(inplace=True)
  (conv7): QConv2d(16, 16, kernel_size=(3, 3), stride=(1, 1), padding=(1, 1), bias=False)
  (bn7): BatchNorm2d(16, eps=1e-05, momentum=0.1, affine=True, track_running_stats=True)
  (relu7): ReLU(inplace=True)
  (conv8): QConv2d(16, 32, kernel_size=(3, 3), stride=(2, 2), padding=(1, 1), bias=False)
  (bn8): BatchNorm2d(32, eps=1e-05, momentum=0.1, affine=True, track_running_stats=True)
  (relu8): ReLU(inplace=True)
  (conv9): QConv2d(32, 32, kernel_size=(3, 3), stride=(1, 1), padding=(1, 1), bias=False)
  (bn9): BatchNorm2d(32, eps=1e-05, momentum=0.1, affine=True, track_running_stats=True)
  (resconv1): Sequential(
    (0): QConv2d(16, 32, kernel_size=(1, 1), stride=(2, 2), bias=False)
    (1): BatchNorm2d(32, eps=1e-05, momentum=0.1, affine=True, track_running_stats=True)
  )
  (relu9): ReLU(inplace=True)
  (conv10): QConv2d(32, 32, kernel_size=(3, 3), stride=(1, 1), padding=(1, 1), bias=False)
  (bn10): BatchNorm2d(32, eps=1e-05, momentum=0.1, affine=True, track_running_stats=True)
  (relu10): ReLU(inplace=True)
  (conv11): QConv2d(32, 32, kernel_size=(3, 3), stride=(1, 1), padding=(1, 1), bias=False)
  (bn11): BatchNorm2d(32, eps=1e-05, momentum=0.1, affine=True, track_running_stats=True)
  (relu11): ReLU(inplace=True)
  (conv12): QConv2d(32, 32, kernel_size=(3, 3), stride=(1, 1), padding=(1, 1), bias=False)
  (bn12): BatchNorm2d(32, eps=1e-05, momentum=0.1, affine=True, track_running_stats=True)
  (relu12): ReLU(inplace=True)
  (conv13): QConv2d(32, 32, kernel_size=(3, 3), stride=(1, 1), padding=(1, 1), bias=False)
  (bn13): BatchNorm2d(32, eps=1e-05, momentum=0.1, affine=True, track_running_stats=True)
  (relu13): ReLU(inplace=True)
  (conv14): QConv2d(32, 64, kernel_size=(3, 3), stride=(2, 2), padding=(1, 1), bias=False)
  (bn14): BatchNorm2d(64, eps=1e-05, momentum=0.1, affine=True, track_running_stats=True)
  (relu14): ReLU(inplace=True)
  (conv15): QConv2d(64, 64, kernel_size=(3, 3), stride=(1, 1), padding=(1, 1), bias=False)
  (bn15): BatchNorm2d(64, eps=1e-05, momentum=0.1, affine=True, track_running_stats=True)
  (resconv2): Sequential(
    (0): QConv2d(32, 64, kernel_size=(1, 1), stride=(2, 2), bias=False)
    (1): BatchNorm2d(64, eps=1e-05, momentum=0.1, affine=True, track_running_stats=True)
  )
  (relu15): ReLU(inplace=True)
  (conv16): QConv2d(64, 64, kernel_size=(3, 3), stride=(1, 1), padding=(1, 1), bias=False)
  (bn16): BatchNorm2d(64, eps=1e-05, momentum=0.1, affine=True, track_running_stats=True)
  (relu16): ReLU(inplace=True)
  (conv17): QConv2d(64, 64, kernel_size=(3, 3), stride=(1, 1), padding=(1, 1), bias=False)
  (bn17): BatchNorm2d(64, eps=1e-05, momentum=0.1, affine=True, track_running_stats=True)
  (relu17): ReLU(inplace=True)
  (conv18): QConv2d(64, 64, kernel_size=(3, 3), stride=(1, 1), padding=(1, 1), bias=False)
  (bn18): BatchNorm2d(64, eps=1e-05, momentum=0.1, affine=True, track_running_stats=True)
  (relu18): ReLU(inplace=True)
  (conv19): QConv2d(64, 64, kernel_size=(3, 3), stride=(1, 1), padding=(1, 1), bias=False)
  (bn19): BatchNorm2d(64, eps=1e-05, momentum=0.1, affine=True, track_running_stats=True)
  (relu19): ReLU(inplace=True)
  (avgpool): AvgPool2d(kernel_size=8, stride=8, padding=0)
  (bn20): BatchNorm1d(64, eps=1e-05, momentum=0.1, affine=True, track_running_stats=True)
  (fc): QLinear(in_features=64, out_features=100, bias=False)
  (bn21): BatchNorm1d(100, eps=1e-05, momentum=0.1, affine=True, track_running_stats=True)
  (logsoftmax): LogSoftmax(dim=1)
)
 * Prec@1 68.710 Prec@5 90.190 Loss 1.2061
Pre-trained Prec@1 with 3 layers frozen: 68.70999908447266 	 Loss: 1.2060546875

Starting training on SRAM layers...
Epoch: [0][38/196]	LR: 0.1	Loss 1.8965 (1.3560)	Prec@1 48.438 (62.210)	
Epoch: [0][77/196]	LR: 0.1	Loss 1.5459 (1.4812)	Prec@1 55.469 (58.494)	
…
          loss: crossentropy
          optim: sgd
          dropout: 0.5
          print_freq: 5
          resume: 
          evaluate: False
          half: True
          save_every: 10
          gpus: 0
          frozen_layers: 5
DEVICE: cuda
GPU Id(s) being used: 0
==> Building model for resnet20 ...
==> Initializing model with pre-trained parameters ...
==> Load pretrained model form ../pretrained_models/ideal/resnet20fp_cifar100.pth.tar ...
Original model accuracy: 69.5999984741211
ResNet_cifar(
  (conv6): QConv2d(16, 16, kernel_size=(3, 3), stride=(1, 1), padding=(1, 1), bias=False)
  (bn6): BatchNorm2d(16, eps=1e-05, momentum=0.1, affine=True, track_running_stats=True)
  (relu6): ReLU(inplace=True)
  (conv7): QConv2d(16, 16, kernel_size=(3, 3), stride=(1, 1), padding=(1, 1), bias=False)
  (bn7): BatchNorm2d(16, eps=1e-05, momentum=0.1, affine=True, track_running_stats=True)
  (relu7): ReLU(inplace=True)
  (conv8): QConv2d(16, 32, kernel_size=(3, 3), stride=(2, 2), padding=(1, 1), bias=False)
  (bn8): BatchNorm2d(32, eps=1e-05, momentum=0.1, affine=True, track_running_stats=True)
  (relu8): ReLU(inplace=True)
  (conv9): QConv2d(32, 32, kernel_size=(3, 3), stride=(1, 1), padding=(1, 1), bias=False)
  (bn9): BatchNorm2d(32, eps=1e-05, momentum=0.1, affine=True, track_running_stats=True)
  (resconv1): Sequential(
    (0): QConv2d(16, 32, kernel_size=(1, 1), stride=(2, 2), bias=False)
    (1): BatchNorm2d(32, eps=1e-05, momentum=0.1, affine=True, track_running_stats=True)
  )
  (relu9): ReLU(inplace=True)
  (conv10): QConv2d(32, 32, kernel_size=(3, 3), stride=(1, 1), padding=(1, 1), bias=False)
  (bn10): BatchNorm2d(32, eps=1e-05, momentum=0.1, affine=True, track_running_stats=True)
  (relu10): ReLU(inplace=True)
  (conv11): QConv2d(32, 32, kernel_size=(3, 3), stride=(1, 1), padding=(1, 1), bias=False)
  (bn11): BatchNorm2d(32, eps=1e-05, momentum=0.1, affine=True, track_running_stats=True)
  (relu11): ReLU(inplace=True)
  (conv12): QConv2d(32, 32, kernel_size=(3, 3), stride=(1, 1), padding=(1, 1), bias=False)
  (bn12): BatchNorm2d(32, eps=1e-05, momentum=0.1, affine=True, track_running_stats=True)
  (relu12): ReLU(inplace=True)
  (conv13): QConv2d(32, 32, kernel_size=(3, 3), stride=(1, 1), padding=(1, 1), bias=False)
  (bn13): BatchNorm2d(32, eps=1e-05, momentum=0.1, affine=True, track_running_stats=True)
  (relu13): ReLU(inplace=True)
  (conv14): QConv2d(32, 64, kernel_size=(3, 3), stride=(2, 2), padding=(1, 1), bias=False)
  (bn14): BatchNorm2d(64, eps=1e-05, momentum=0.1, affine=True, track_running_stats=True)
  (relu14): ReLU(inplace=True)
  (conv15): QConv2d(64, 64, kernel_size=(3, 3), stride=(1, 1), padding=(1, 1), bias=False)
  (bn15): BatchNorm2d(64, eps=1e-05, momentum=0.1, affine=True, track_running_stats=True)
  (resconv2): Sequential(
    (0): QConv2d(32, 64, kernel_size=(1, 1), stride=(2, 2), bias=False)
    (1): BatchNorm2d(64, eps=1e-05, momentum=0.1, affine=True, track_running_stats=True)
  )
  (relu15): ReLU(inplace=True)
  (conv16): QConv2d(64, 64, kernel_size=(3, 3), stride=(1, 1), padding=(1, 1), bias=False)
  (bn16): BatchNorm2d(64, eps=1e-05, momentum=0.1, affine=True, track_running_stats=True)
  (relu16): ReLU(inplace=True)
  (conv17): QConv2d(64, 64, kernel_size=(3, 3), stride=(1, 1), padding=(1, 1), bias=False)
  (bn17): BatchNorm2d(64, eps=1e-05, momentum=0.1, affine=True, track_running_stats=True)
  (relu17): ReLU(inplace=True)
  (conv18): QConv2d(64, 64, kernel_size=(3, 3), stride=(1, 1), padding=(1, 1), bias=False)
  (bn18): BatchNorm2d(64, eps=1e-05, momentum=0.1, affine=True, track_running_stats=True)
  (relu18): ReLU(inplace=True)
  (conv19): QConv2d(64, 64, kernel_size=(3, 3), stride=(1, 1), padding=(1, 1), bias=False)
  (bn19): BatchNorm2d(64, eps=1e-05, momentum=0.1, affine=True, track_running_stats=True)
  (relu19): ReLU(inplace=True)
  (avgpool): AvgPool2d(kernel_size=8, stride=8, padding=0)
  (bn20): BatchNorm1d(64, eps=1e-05, momentum=0.1, affine=True, track_running_stats=True)
  (fc): QLinear(in_features=64, out_features=100, bias=False)
  (bn21): BatchNorm1d(100, eps=1e-05, momentum=0.1, affine=True, track_running_stats=True)
  (logsoftmax): LogSoftmax(dim=1)
)
 * Prec@1 68.180 Prec@5 89.990 Loss 1.2236
Pre-trained Prec@1 with 5 layers frozen: 68.18000030517578 	 Loss: 1.2236328125

Starting training on SRAM layers...
Epoch: [0][38/196]	LR: 0.1	Loss 1.6289 (1.3046)	Prec@1 55.859 (63.431)	
Epoch: [0][77/196]	LR: 0.1	Loss 1.5146 (1.4422)	Prec@1 56.250 (59.831)	
…
          loss: crossentropy
          optim: sgd
          dropout: 0.5
          print_freq: 5
          resume: 
          evaluate: False
          half: True
          save_every: 10
          gpus: 0
          frozen_layers: 7
DEVICE: cuda
GPU Id(s) being used: 0
==> Building model for resnet20 ...
==> Initializing model with pre-trained parameters ...
==> Load pretrained model form ../pretrained_models/ideal/resnet20fp_cifar100.pth.tar ...
Original model accuracy: 69.5999984741211
ResNet_cifar(
  (conv8): QConv2d(16, 32, kernel_size=(3, 3), stride=(2, 2), padding=(1, 1), bias=False)
  (bn8): BatchNorm2d(32, eps=1e-05, momentum=0.1, affine=True, track_running_stats=True)
  (relu8): ReLU(inplace=True)
  (conv9): QConv2d(32, 32, kernel_size=(3, 3), stride=(1, 1), padding=(1, 1), bias=False)
  (bn9): BatchNorm2d(32, eps=1e-05, momentum=0.1, affine=True, track_running_stats=True)
  (resconv1): Sequential(
    (0): QConv2d(16, 32, kernel_size=(1, 1), stride=(2, 2), bias=False)
    (1): BatchNorm2d(32, eps=1e-05, momentum=0.1, affine=True, track_running_stats=True)
  )
  (relu9): ReLU(inplace=True)
  (conv10): QConv2d(32, 32, kernel_size=(3, 3), stride=(1, 1), padding=(1, 1), bias=False)
  (bn10): BatchNorm2d(32, eps=1e-05, momentum=0.1, affine=True, track_running_stats=True)
  (relu10): ReLU(inplace=True)
  (conv11): QConv2d(32, 32, kernel_size=(3, 3), stride=(1, 1), padding=(1, 1), bias=False)
  (bn11): BatchNorm2d(32, eps=1e-05, momentum=0.1, affine=True, track_running_stats=True)
  (relu11): ReLU(inplace=True)
  (conv12): QConv2d(32, 32, kernel_size=(3, 3), stride=(1, 1), padding=(1, 1), bias=False)
  (bn12): BatchNorm2d(32, eps=1e-05, momentum=0.1, affine=True, track_running_stats=True)
  (relu12): ReLU(inplace=True)
  (conv13): QConv2d(32, 32, kernel_size=(3, 3), stride=(1, 1), padding=(1, 1), bias=False)
  (bn13): BatchNorm2d(32, eps=1e-05, momentum=0.1, affine=True, track_running_stats=True)
  (relu13): ReLU(inplace=True)
  (conv14): QConv2d(32, 64, kernel_size=(3, 3), stride=(2, 2), padding=(1, 1), bias=False)
  (bn14): BatchNorm2d(64, eps=1e-05, momentum=0.1, affine=True, track_running_stats=True)
  (relu14): ReLU(inplace=True)
  (conv15): QConv2d(64, 64, kernel_size=(3, 3), stride=(1, 1), padding=(1, 1), bias=False)
  (bn15): BatchNorm2d(64, eps=1e-05, momentum=0.1, affine=True, track_running_stats=True)
  (resconv2): Sequential(
    (0): QConv2d(32, 64, kernel_size=(1, 1), stride=(2, 2), bias=False)
    (1): BatchNorm2d(64, eps=1e-05, momentum=0.1, affine=True, track_running_stats=True)
  )
  (relu15): ReLU(inplace=True)
  (conv16): QConv2d(64, 64, kernel_size=(3, 3), stride=(1, 1), padding=(1, 1), bias=False)
  (bn16): BatchNorm2d(64, eps=1e-05, momentum=0.1, affine=True, track_running_stats=True)
  (relu16): ReLU(inplace=True)
  (conv17): QConv2d(64, 64, kernel_size=(3, 3), stride=(1, 1), padding=(1, 1), bias=False)
  (bn17): BatchNorm2d(64, eps=1e-05, momentum=0.1, affine=True, track_running_stats=True)
  (relu17): ReLU(inplace=True)
  (conv18): QConv2d(64, 64, kernel_size=(3, 3), stride=(1, 1), padding=(1, 1), bias=False)
  (bn18): BatchNorm2d(64, eps=1e-05, momentum=0.1, affine=True, track_running_stats=True)
  (relu18): ReLU(inplace=True)
  (conv19): QConv2d(64, 64, kernel_size=(3, 3), stride=(1, 1), padding=(1, 1), bias=False)
  (bn19): BatchNorm2d(64, eps=1e-05, momentum=0.1, affine=True, track_running_stats=True)
  (relu19): ReLU(inplace=True)
  (avgpool): AvgPool2d(kernel_size=8, stride=8, padding=0)
  (bn20): BatchNorm1d(64, eps=1e-05, momentum=0.1, affine=True, track_running_stats=True)
  (fc): QLinear(in_features=64, out_features=100, bias=False)
  (bn21): BatchNorm1d(100, eps=1e-05, momentum=0.1, affine=True, track_running_stats=True)
  (logsoftmax): LogSoftmax(dim=1)
)
 * Prec@1 67.110 Prec@5 89.430 Loss 1.2637
Pre-trained Prec@1 with 7 layers frozen: 67.11000061035156 	 Loss: 1.263671875

Starting training on SRAM layers...
Epoch: [0][38/196]	LR: 0.1	Loss 1.4990 (1.2679)	Prec@1 57.422 (64.673)	
Epoch: [0][77/196]	LR: 0.1	Loss 1.4473 (1.4056)	Prec@1 59.766 (60.752)	
…
          loss: crossentropy
          optim: sgd
          dropout: 0.5
          print_freq: 5
          resume: 
          evaluate: False
          half: True
          save_every: 10
          gpus: 0
          frozen_layers: 9
DEVICE: cuda
GPU Id(s) being used: 0
==> Building model for resnet20 ...
==> Initializing model with pre-trained parameters ...
==> Load pretrained model form ../pretrained_models/ideal/resnet20fp_cifar100.pth.tar ...
Original model accuracy: 69.5999984741211
ResNet_cifar(
  (conv10): QConv2d(32, 32, kernel_size=(3, 3), stride=(1, 1), padding=(1, 1), bias=False)
  (bn10): BatchNorm2d(32, eps=1e-05, momentum=0.1, affine=True, track_running_stats=True)
  (relu10): ReLU(inplace=True)
  (conv11): QConv2d(32, 32, kernel_size=(3, 3), stride=(1, 1), padding=(1, 1), bias=False)
  (bn11): BatchNorm2d(32, eps=1e-05, momentum=0.1, affine=True, track_running_stats=True)
  (relu11): ReLU(inplace=True)
  (conv12): QConv2d(32, 32, kernel_size=(3, 3), stride=(1, 1), padding=(1, 1), bias=False)
  (bn12): BatchNorm2d(32, eps=1e-05, momentum=0.1, affine=True, track_running_stats=True)
  (relu12): ReLU(inplace=True)
  (conv13): QConv2d(32, 32, kernel_size=(3, 3), stride=(1, 1), padding=(1, 1), bias=False)
  (bn13): BatchNorm2d(32, eps=1e-05, momentum=0.1, affine=True, track_running_stats=True)
  (relu13): ReLU(inplace=True)
  (conv14): QConv2d(32, 64, kernel_size=(3, 3), stride=(2, 2), padding=(1, 1), bias=False)
  (bn14): BatchNorm2d(64, eps=1e-05, momentum=0.1, affine=True, track_running_stats=True)
  (relu14): ReLU(inplace=True)
  (conv15): QConv2d(64, 64, kernel_size=(3, 3), stride=(1, 1), padding=(1, 1), bias=False)
  (bn15): BatchNorm2d(64, eps=1e-05, momentum=0.1, affine=True, track_running_stats=True)
  (resconv2): Sequential(
    (0): QConv2d(32, 64, kernel_size=(1, 1), stride=(2, 2), bias=False)
    (1): BatchNorm2d(64, eps=1e-05, momentum=0.1, affine=True, track_running_stats=True)
  )
  (relu15): ReLU(inplace=True)
  (conv16): QConv2d(64, 64, kernel_size=(3, 3), stride=(1, 1), padding=(1, 1), bias=False)
  (bn16): BatchNorm2d(64, eps=1e-05, momentum=0.1, affine=True, track_running_stats=True)
  (relu16): ReLU(inplace=True)
  (conv17): QConv2d(64, 64, kernel_size=(3, 3), stride=(1, 1), padding=(1, 1), bias=False)
  (bn17): BatchNorm2d(64, eps=1e-05, momentum=0.1, affine=True, track_running_stats=True)
  (relu17): ReLU(inplace=True)
  (conv18): QConv2d(64, 64, kernel_size=(3, 3), stride=(1, 1), padding=(1, 1), bias=False)
  (bn18): BatchNorm2d(64, eps=1e-05, momentum=0.1, affine=True, track_running_stats=True)
  (relu18): ReLU(inplace=True)
  (conv19): QConv2d(64, 64, kernel_size=(3, 3), stride=(1, 1), padding=(1, 1), bias=False)
  (bn19): BatchNorm2d(64, eps=1e-05, momentum=0.1, affine=True, track_running_stats=True)
  (relu19): ReLU(inplace=True)
  (avgpool): AvgPool2d(kernel_size=8, stride=8, padding=0)
  (bn20): BatchNorm1d(64, eps=1e-05, momentum=0.1, affine=True, track_running_stats=True)
  (fc): QLinear(in_features=64, out_features=100, bias=False)
  (bn21): BatchNorm1d(100, eps=1e-05, momentum=0.1, affine=True, track_running_stats=True)
  (logsoftmax): LogSoftmax(dim=1)
)
 * Prec@1 59.040 Prec@5 84.590 Loss 1.6699
Pre-trained Prec@1 with 9 layers frozen: 59.03999710083008 	 Loss: 1.669921875

Starting training on SRAM layers...
Epoch: [0][38/196]	LR: 0.1	Loss 1.7070 (1.3592)	Prec@1 53.125 (62.129)	
Epoch: [0][77/196]	LR: 0.1	Loss 1.3154 (1.4052)	Prec@1 62.891 (60.392)	
…
