…
          momentum: 0.9
          weight_decay: 0.0001
          gamma: 0.1
          milestones: [8, 16, 24]
          loss: crossentropy
          optim: sgd
          dropout: 0.5
          print_freq: 5
          resume: 
          evaluate: False
          half: True
          save_every: 10
          gpus: 0
          frozen_layers: 5
DEVICE: cuda
GPU Id(s) being used: 0
==> Building model for resnet20 ...
==> Initializing model with pre-trained parameters ...
==> Load pretrained model form ../pretrained_models/ideal/resnet20fp_cifar10.pth.tar ...
Original model accuracy: 91.93
ResNet_cifar(
  (conv6): Conv2d(16, 16, kernel_size=(3, 3), stride=(1, 1), padding=(1, 1), bias=False)
  (bn6): BatchNorm2d(16, eps=1e-05, momentum=0.1, affine=True, track_running_stats=True)
  (relu6): ReLU(inplace=True)
  (conv7): Conv2d(16, 16, kernel_size=(3, 3), stride=(1, 1), padding=(1, 1), bias=False)
  (bn7): BatchNorm2d(16, eps=1e-05, momentum=0.1, affine=True, track_running_stats=True)
  (relu7): ReLU(inplace=True)
  (conv8): Conv2d(16, 32, kernel_size=(3, 3), stride=(2, 2), padding=(1, 1), bias=False)
  (bn8): BatchNorm2d(32, eps=1e-05, momentum=0.1, affine=True, track_running_stats=True)
  (relu8): ReLU(inplace=True)
  (conv9): Conv2d(32, 32, kernel_size=(3, 3), stride=(1, 1), padding=(1, 1), bias=False)
  (bn9): BatchNorm2d(32, eps=1e-05, momentum=0.1, affine=True, track_running_stats=True)
  (resconv1): Sequential(
    (0): Conv2d(16, 32, kernel_size=(1, 1), stride=(2, 2), bias=False)
    (1): BatchNorm2d(32, eps=1e-05, momentum=0.1, affine=True, track_running_stats=True)
  )
  (relu9): ReLU(inplace=True)
  (conv10): Conv2d(32, 32, kernel_size=(3, 3), stride=(1, 1), padding=(1, 1), bias=False)
  (bn10): BatchNorm2d(32, eps=1e-05, momentum=0.1, affine=True, track_running_stats=True)
  (relu10): ReLU(inplace=True)
  (conv11): Conv2d(32, 32, kernel_size=(3, 3), stride=(1, 1), padding=(1, 1), bias=False)
  (bn11): BatchNorm2d(32, eps=1e-05, momentum=0.1, affine=True, track_running_stats=True)
  (relu11): ReLU(inplace=True)
  (conv12): Conv2d(32, 32, kernel_size=(3, 3), stride=(1, 1), padding=(1, 1), bias=False)
  (bn12): BatchNorm2d(32, eps=1e-05, momentum=0.1, affine=True, track_running_stats=True)
  (relu12): ReLU(inplace=True)
  (conv13): Conv2d(32, 32, kernel_size=(3, 3), stride=(1, 1), padding=(1, 1), bias=False)
  (bn13): BatchNorm2d(32, eps=1e-05, momentum=0.1, affine=True, track_running_stats=True)
  (relu13): ReLU(inplace=True)
  (conv14): Conv2d(32, 64, kernel_size=(3, 3), stride=(2, 2), padding=(1, 1), bias=False)
  (bn14): BatchNorm2d(64, eps=1e-05, momentum=0.1, affine=True, track_running_stats=True)
  (relu14): ReLU(inplace=True)
  (conv15): Conv2d(64, 64, kernel_size=(3, 3), stride=(1, 1), padding=(1, 1), bias=False)
  (bn15): BatchNorm2d(64, eps=1e-05, momentum=0.1, affine=True, track_running_stats=True)
  (resconv2): Sequential(
    (0): Conv2d(32, 64, kernel_size=(1, 1), stride=(2, 2), bias=False)
    (1): BatchNorm2d(64, eps=1e-05, momentum=0.1, affine=True, track_running_stats=True)
  )
  (relu15): ReLU(inplace=True)
  (conv16): Conv2d(64, 64, kernel_size=(3, 3), stride=(1, 1), padding=(1, 1), bias=False)
  (bn16): BatchNorm2d(64, eps=1e-05, momentum=0.1, affine=True, track_running_stats=True)
  (relu16): ReLU(inplace=True)
  (conv17): Conv2d(64, 64, kernel_size=(3, 3), stride=(1, 1), padding=(1, 1), bias=False)
  (bn17): BatchNorm2d(64, eps=1e-05, momentum=0.1, affine=True, track_running_stats=True)
  (relu17): ReLU(inplace=True)
  (conv18): Conv2d(64, 64, kernel_size=(3, 3), stride=(1, 1), padding=(1, 1), bias=False)
  (bn18): BatchNorm2d(64, eps=1e-05, momentum=0.1, affine=True, track_running_stats=True)
  (relu18): ReLU(inplace=True)
  (conv19): Conv2d(64, 64, kernel_size=(3, 3), stride=(1, 1), padding=(1, 1), bias=False)
  (bn19): BatchNorm2d(64, eps=1e-05, momentum=0.1, affine=True, track_running_stats=True)
  (relu19): ReLU(inplace=True)
  (avgpool): AvgPool2d(kernel_size=8, stride=8, padding=0)
  (bn20): BatchNorm1d(64, eps=1e-05, momentum=0.1, affine=True, track_running_stats=True)
  (fc): Linear(in_features=64, out_features=10, bias=False)
  (bn21): BatchNorm1d(10, eps=1e-05, momentum=0.1, affine=True, track_running_stats=True)
  (logsoftmax): LogSoftmax(dim=1)
)
 * Prec@1 88.600 Prec@5 99.500 Loss 0.4551
Pre-trained Prec@1 with 5 layers frozen: 88.5999984741211 	 Loss: 0.455078125

Starting training on SRAM layers...
Epoch: [0][38/196]	LR: 0.05	Loss 0.0650 (0.0728)	Prec@1 98.438 (97.586)	
Epoch: [0][77/196]	LR: 0.05	Loss 0.0467 (0.0765)	Prec@1 98.828 (97.361)	
…
          momentum: 0.9
          weight_decay: 0.0001
          gamma: 0.1
          milestones: [8, 16, 24]
          loss: crossentropy
          optim: sgd
          dropout: 0.5
          print_freq: 5
          resume: 
          evaluate: False
          half: True
          save_every: 10
          gpus: 0
          frozen_layers: 7
DEVICE: cuda
GPU Id(s) being used: 0
==> Building model for resnet20 ...
==> Initializing model with pre-trained parameters ...
==> Load pretrained model form ../pretrained_models/ideal/resnet20fp_cifar10.pth.tar ...
Original model accuracy: 91.93
ResNet_cifar(
  (conv8): Conv2d(16, 32, kernel_size=(3, 3), stride=(2, 2), padding=(1, 1), bias=False)
  (bn8): BatchNorm2d(32, eps=1e-05, momentum=0.1, affine=True, track_running_stats=True)
  (relu8): ReLU(inplace=True)
  (conv9): Conv2d(32, 32, kernel_size=(3, 3), stride=(1, 1), padding=(1, 1), bias=False)
  (bn9): BatchNorm2d(32, eps=1e-05, momentum=0.1, affine=True, track_running_stats=True)
  (resconv1): Sequential(
    (0): Conv2d(16, 32, kernel_size=(1, 1), stride=(2, 2), bias=False)
    (1): BatchNorm2d(32, eps=1e-05, momentum=0.1, affine=True, track_running_stats=True)
  )
  (relu9): ReLU(inplace=True)
  (conv10): Conv2d(32, 32, kernel_size=(3, 3), stride=(1, 1), padding=(1, 1), bias=False)
  (bn10): BatchNorm2d(32, eps=1e-05, momentum=0.1, affine=True, track_running_stats=True)
  (relu10): ReLU(inplace=True)
  (conv11): Conv2d(32, 32, kernel_size=(3, 3), stride=(1, 1), padding=(1, 1), bias=False)
  (bn11): BatchNorm2d(32, eps=1e-05, momentum=0.1, affine=True, track_running_stats=True)
  (relu11): ReLU(inplace=True)
  (conv12): Conv2d(32, 32, kernel_size=(3, 3), stride=(1, 1), padding=(1, 1), bias=False)
  (bn12): BatchNorm2d(32, eps=1e-05, momentum=0.1, affine=True, track_running_stats=True)
  (relu12): ReLU(inplace=True)
  (conv13): Conv2d(32, 32, kernel_size=(3, 3), stride=(1, 1), padding=(1, 1), bias=False)
  (bn13): BatchNorm2d(32, eps=1e-05, momentum=0.1, affine=True, track_running_stats=True)
  (relu13): ReLU(inplace=True)
  (conv14): Conv2d(32, 64, kernel_size=(3, 3), stride=(2, 2), padding=(1, 1), bias=False)
  (bn14): BatchNorm2d(64, eps=1e-05, momentum=0.1, affine=True, track_running_stats=True)
  (relu14): ReLU(inplace=True)
  (conv15): Conv2d(64, 64, kernel_size=(3, 3), stride=(1, 1), padding=(1, 1), bias=False)
  (bn15): BatchNorm2d(64, eps=1e-05, momentum=0.1, affine=True, track_running_stats=True)
  (resconv2): Sequential(
    (0): Conv2d(32, 64, kernel_size=(1, 1), stride=(2, 2), bias=False)
    (1): BatchNorm2d(64, eps=1e-05, momentum=0.1, affine=True, track_running_stats=True)
  )
  (relu15): ReLU(inplace=True)
  (conv16): Conv2d(64, 64, kernel_size=(3, 3), stride=(1, 1), padding=(1, 1), bias=False)
  (bn16): BatchNorm2d(64, eps=1e-05, momentum=0.1, affine=True, track_running_stats=True)
  (relu16): ReLU(inplace=True)
  (conv17): Conv2d(64, 64, kernel_size=(3, 3), stride=(1, 1), padding=(1, 1), bias=False)
  (bn17): BatchNorm2d(64, eps=1e-05, momentum=0.1, affine=True, track_running_stats=True)
  (relu17): ReLU(inplace=True)
  (conv18): Conv2d(64, 64, kernel_size=(3, 3), stride=(1, 1), padding=(1, 1), bias=False)
  (bn18): BatchNorm2d(64, eps=1e-05, momentum=0.1, affine=True, track_running_stats=True)
  (relu18): ReLU(inplace=True)
  (conv19): Conv2d(64, 64, kernel_size=(3, 3), stride=(1, 1), padding=(1, 1), bias=False)
  (bn19): BatchNorm2d(64, eps=1e-05, momentum=0.1, affine=True, track_running_stats=True)
  (relu19): ReLU(inplace=True)
  (avgpool): AvgPool2d(kernel_size=8, stride=8, padding=0)
  (bn20): BatchNorm1d(64, eps=1e-05, momentum=0.1, affine=True, track_running_stats=True)
  (fc): Linear(in_features=64, out_features=10, bias=False)
  (bn21): BatchNorm1d(10, eps=1e-05, momentum=0.1, affine=True, track_running_stats=True)
  (logsoftmax): LogSoftmax(dim=1)
)
 * Prec@1 79.210 Prec@5 98.660 Loss 0.9785
Pre-trained Prec@1 with 7 layers frozen: 79.20999908447266 	 Loss: 0.978515625

Starting training on SRAM layers...
Epoch: [0][38/196]	LR: 0.05	Loss 0.0670 (0.1076)	Prec@1 97.266 (96.354)	
Epoch: [0][77/196]	LR: 0.05	Loss 0.1174 (0.1131)	Prec@1 96.094 (96.159)	
…
          momentum: 0.9
          weight_decay: 0.0001
          gamma: 0.1
          milestones: [8, 16, 24]
          loss: crossentropy
          optim: sgd
          dropout: 0.5
          print_freq: 5
          resume: 
          evaluate: False
          half: True
          save_every: 10
          gpus: 0
          frozen_layers: 9
DEVICE: cuda
GPU Id(s) being used: 0
==> Building model for resnet20 ...
==> Initializing model with pre-trained parameters ...
==> Load pretrained model form ../pretrained_models/ideal/resnet20fp_cifar10.pth.tar ...
Original model accuracy: 91.93
ResNet_cifar(
  (conv10): Conv2d(32, 32, kernel_size=(3, 3), stride=(1, 1), padding=(1, 1), bias=False)
  (bn10): BatchNorm2d(32, eps=1e-05, momentum=0.1, affine=True, track_running_stats=True)
  (relu10): ReLU(inplace=True)
  (conv11): Conv2d(32, 32, kernel_size=(3, 3), stride=(1, 1), padding=(1, 1), bias=False)
  (bn11): BatchNorm2d(32, eps=1e-05, momentum=0.1, affine=True, track_running_stats=True)
  (relu11): ReLU(inplace=True)
  (conv12): Conv2d(32, 32, kernel_size=(3, 3), stride=(1, 1), padding=(1, 1), bias=False)
  (bn12): BatchNorm2d(32, eps=1e-05, momentum=0.1, affine=True, track_running_stats=True)
  (relu12): ReLU(inplace=True)
  (conv13): Conv2d(32, 32, kernel_size=(3, 3), stride=(1, 1), padding=(1, 1), bias=False)
  (bn13): BatchNorm2d(32, eps=1e-05, momentum=0.1, affine=True, track_running_stats=True)
  (relu13): ReLU(inplace=True)
  (conv14): Conv2d(32, 64, kernel_size=(3, 3), stride=(2, 2), padding=(1, 1), bias=False)
  (bn14): BatchNorm2d(64, eps=1e-05, momentum=0.1, affine=True, track_running_stats=True)
  (relu14): ReLU(inplace=True)
  (conv15): Conv2d(64, 64, kernel_size=(3, 3), stride=(1, 1), padding=(1, 1), bias=False)
  (bn15): BatchNorm2d(64, eps=1e-05, momentum=0.1, affine=True, track_running_stats=True)
  (resconv2): Sequential(
    (0): Conv2d(32, 64, kernel_size=(1, 1), stride=(2, 2), bias=False)
    (1): BatchNorm2d(64, eps=1e-05, momentum=0.1, affine=True, track_running_stats=True)
  )
  (relu15): ReLU(inplace=True)
  (conv16): Conv2d(64, 64, kernel_size=(3, 3), stride=(1, 1), padding=(1, 1), bias=False)
  (bn16): BatchNorm2d(64, eps=1e-05, momentum=0.1, affine=True, track_running_stats=True)
  (relu16): ReLU(inplace=True)
  (conv17): Conv2d(64, 64, kernel_size=(3, 3), stride=(1, 1), padding=(1, 1), bias=False)
  (bn17): BatchNorm2d(64, eps=1e-05, momentum=0.1, affine=True, track_running_stats=True)
  (relu17): ReLU(inplace=True)
  (conv18): Conv2d(64, 64, kernel_size=(3, 3), stride=(1, 1), padding=(1, 1), bias=False)
  (bn18): BatchNorm2d(64, eps=1e-05, momentum=0.1, affine=True, track_running_stats=True)
  (relu18): ReLU(inplace=True)
  (conv19): Conv2d(64, 64, kernel_size=(3, 3), stride=(1, 1), padding=(1, 1), bias=False)
  (bn19): BatchNorm2d(64, eps=1e-05, momentum=0.1, affine=True, track_running_stats=True)
  (relu19): ReLU(inplace=True)
  (avgpool): AvgPool2d(kernel_size=8, stride=8, padding=0)
  (bn20): BatchNorm1d(64, eps=1e-05, momentum=0.1, affine=True, track_running_stats=True)
  (fc): Linear(in_features=64, out_features=10, bias=False)
  (bn21): BatchNorm1d(10, eps=1e-05, momentum=0.1, affine=True, track_running_stats=True)
  (logsoftmax): LogSoftmax(dim=1)
)
 * Prec@1 39.780 Prec@5 87.950 Loss 3.0176
Pre-trained Prec@1 with 9 layers frozen: 39.779998779296875 	 Loss: 3.017578125

Starting training on SRAM layers...
Epoch: [0][38/196]	LR: 0.05	Loss 0.1713 (0.3153)	Prec@1 92.969 (89.734)	
Epoch: [0][77/196]	LR: 0.05	Loss 0.2864 (0.2843)	Prec@1 90.625 (90.515)	
…
