…
          momentum: 0.9
          weight_decay: 0.0001
          gamma: 0.1
          milestones: [8, 16, 24]
          loss: crossentropy
          optim: sgd
          dropout: 0.5
          print_freq: 5
          resume: 
          evaluate: False
          half: True
          save_every: 10
          gpus: 1
          frozen_layers: 11
DEVICE: cuda
GPU Id(s) being used: 1
==> Building model for resnet20 ...
==> Initializing model with pre-trained parameters ...
==> Load pretrained model form ../pretrained_models/ideal/resnet20fp_cifar10.pth.tar ...
Original model accuracy: 91.93
ResNet_cifar(
  (conv12): Conv2d(32, 32, kernel_size=(3, 3), stride=(1, 1), padding=(1, 1), bias=False)
  (bn12): BatchNorm2d(32, eps=1e-05, momentum=0.1, affine=True, track_running_stats=True)
  (relu12): ReLU(inplace=True)
  (conv13): Conv2d(32, 32, kernel_size=(3, 3), stride=(1, 1), padding=(1, 1), bias=False)
  (bn13): BatchNorm2d(32, eps=1e-05, momentum=0.1, affine=True, track_running_stats=True)
  (relu13): ReLU(inplace=True)
  (conv14): Conv2d(32, 64, kernel_size=(3, 3), stride=(2, 2), padding=(1, 1), bias=False)
  (bn14): BatchNorm2d(64, eps=1e-05, momentum=0.1, affine=True, track_running_stats=True)
  (relu14): ReLU(inplace=True)
  (conv15): Conv2d(64, 64, kernel_size=(3, 3), stride=(1, 1), padding=(1, 1), bias=False)
  (bn15): BatchNorm2d(64, eps=1e-05, momentum=0.1, affine=True, track_running_stats=True)
  (resconv2): Sequential(
    (0): Conv2d(32, 64, kernel_size=(1, 1), stride=(2, 2), bias=False)
    (1): BatchNorm2d(64, eps=1e-05, momentum=0.1, affine=True, track_running_stats=True)
  )
  (relu15): ReLU(inplace=True)
  (conv16): Conv2d(64, 64, kernel_size=(3, 3), stride=(1, 1), padding=(1, 1), bias=False)
  (bn16): BatchNorm2d(64, eps=1e-05, momentum=0.1, affine=True, track_running_stats=True)
  (relu16): ReLU(inplace=True)
  (conv17): Conv2d(64, 64, kernel_size=(3, 3), stride=(1, 1), padding=(1, 1), bias=False)
  (bn17): BatchNorm2d(64, eps=1e-05, momentum=0.1, affine=True, track_running_stats=True)
  (relu17): ReLU(inplace=True)
  (conv18): Conv2d(64, 64, kernel_size=(3, 3), stride=(1, 1), padding=(1, 1), bias=False)
  (bn18): BatchNorm2d(64, eps=1e-05, momentum=0.1, affine=True, track_running_stats=True)
  (relu18): ReLU(inplace=True)
  (conv19): Conv2d(64, 64, kernel_size=(3, 3), stride=(1, 1), padding=(1, 1), bias=False)
  (bn19): BatchNorm2d(64, eps=1e-05, momentum=0.1, affine=True, track_running_stats=True)
  (relu19): ReLU(inplace=True)
  (avgpool): AvgPool2d(kernel_size=8, stride=8, padding=0)
  (bn20): BatchNorm1d(64, eps=1e-05, momentum=0.1, affine=True, track_running_stats=True)
  (fc): Linear(in_features=64, out_features=10, bias=False)
  (bn21): BatchNorm1d(10, eps=1e-05, momentum=0.1, affine=True, track_running_stats=True)
  (logsoftmax): LogSoftmax(dim=1)
)
 * Prec@1 49.810 Prec@5 90.770 Loss 2.4062
Pre-trained Prec@1 with 11 layers frozen: 49.80999755859375 	 Loss: 2.40625

Starting training on SRAM layers...
Epoch: [0][38/196]	LR: 0.1	Loss 0.2358 (0.3423)	Prec@1 93.359 (88.582)	
Epoch: [0][77/196]	LR: 0.1	Loss 0.2468 (0.3063)	Prec@1 90.234 (89.694)	
…
          momentum: 0.9
          weight_decay: 0.0001
          gamma: 0.1
          milestones: [8, 16, 24]
          loss: crossentropy
          optim: sgd
          dropout: 0.5
          print_freq: 5
          resume: 
          evaluate: False
          half: True
          save_every: 10
          gpus: 1
          frozen_layers: 13
DEVICE: cuda
GPU Id(s) being used: 1
==> Building model for resnet20 ...
==> Initializing model with pre-trained parameters ...
==> Load pretrained model form ../pretrained_models/ideal/resnet20fp_cifar10.pth.tar ...
Original model accuracy: 91.93
ResNet_cifar(
  (conv14): Conv2d(32, 64, kernel_size=(3, 3), stride=(2, 2), padding=(1, 1), bias=False)
  (bn14): BatchNorm2d(64, eps=1e-05, momentum=0.1, affine=True, track_running_stats=True)
  (relu14): ReLU(inplace=True)
  (conv15): Conv2d(64, 64, kernel_size=(3, 3), stride=(1, 1), padding=(1, 1), bias=False)
  (bn15): BatchNorm2d(64, eps=1e-05, momentum=0.1, affine=True, track_running_stats=True)
  (resconv2): Sequential(
    (0): Conv2d(32, 64, kernel_size=(1, 1), stride=(2, 2), bias=False)
    (1): BatchNorm2d(64, eps=1e-05, momentum=0.1, affine=True, track_running_stats=True)
  )
  (relu15): ReLU(inplace=True)
  (conv16): Conv2d(64, 64, kernel_size=(3, 3), stride=(1, 1), padding=(1, 1), bias=False)
  (bn16): BatchNorm2d(64, eps=1e-05, momentum=0.1, affine=True, track_running_stats=True)
  (relu16): ReLU(inplace=True)
  (conv17): Conv2d(64, 64, kernel_size=(3, 3), stride=(1, 1), padding=(1, 1), bias=False)
  (bn17): BatchNorm2d(64, eps=1e-05, momentum=0.1, affine=True, track_running_stats=True)
  (relu17): ReLU(inplace=True)
  (conv18): Conv2d(64, 64, kernel_size=(3, 3), stride=(1, 1), padding=(1, 1), bias=False)
  (bn18): BatchNorm2d(64, eps=1e-05, momentum=0.1, affine=True, track_running_stats=True)
  (relu18): ReLU(inplace=True)
  (conv19): Conv2d(64, 64, kernel_size=(3, 3), stride=(1, 1), padding=(1, 1), bias=False)
  (bn19): BatchNorm2d(64, eps=1e-05, momentum=0.1, affine=True, track_running_stats=True)
  (relu19): ReLU(inplace=True)
  (avgpool): AvgPool2d(kernel_size=8, stride=8, padding=0)
  (bn20): BatchNorm1d(64, eps=1e-05, momentum=0.1, affine=True, track_running_stats=True)
  (fc): Linear(in_features=64, out_features=10, bias=False)
  (bn21): BatchNorm1d(10, eps=1e-05, momentum=0.1, affine=True, track_running_stats=True)
  (logsoftmax): LogSoftmax(dim=1)
)
 * Prec@1 44.860 Prec@5 88.580 Loss 2.7422
Pre-trained Prec@1 with 13 layers frozen: 44.86000061035156 	 Loss: 2.7421875

Starting training on SRAM layers...
Epoch: [0][38/196]	LR: 0.1	Loss 0.3237 (0.3837)	Prec@1 86.719 (87.630)	
Epoch: [0][77/196]	LR: 0.1	Loss 0.2805 (0.3470)	Prec@1 89.062 (88.276)	
…
          momentum: 0.9
          weight_decay: 0.0001
          gamma: 0.1
          milestones: [8, 16, 24]
          loss: crossentropy
          optim: sgd
          dropout: 0.5
          print_freq: 5
          resume: 
          evaluate: False
          half: True
          save_every: 10
          gpus: 1
          frozen_layers: 15
DEVICE: cuda
GPU Id(s) being used: 1
==> Building model for resnet20 ...
==> Initializing model with pre-trained parameters ...
==> Load pretrained model form ../pretrained_models/ideal/resnet20fp_cifar10.pth.tar ...
Original model accuracy: 91.93
ResNet_cifar(
  (conv16): Conv2d(64, 64, kernel_size=(3, 3), stride=(1, 1), padding=(1, 1), bias=False)
  (bn16): BatchNorm2d(64, eps=1e-05, momentum=0.1, affine=True, track_running_stats=True)
  (relu16): ReLU(inplace=True)
  (conv17): Conv2d(64, 64, kernel_size=(3, 3), stride=(1, 1), padding=(1, 1), bias=False)
  (bn17): BatchNorm2d(64, eps=1e-05, momentum=0.1, affine=True, track_running_stats=True)
  (relu17): ReLU(inplace=True)
  (conv18): Conv2d(64, 64, kernel_size=(3, 3), stride=(1, 1), padding=(1, 1), bias=False)
  (bn18): BatchNorm2d(64, eps=1e-05, momentum=0.1, affine=True, track_running_stats=True)
  (relu18): ReLU(inplace=True)
  (conv19): Conv2d(64, 64, kernel_size=(3, 3), stride=(1, 1), padding=(1, 1), bias=False)
  (bn19): BatchNorm2d(64, eps=1e-05, momentum=0.1, affine=True, track_running_stats=True)
  (relu19): ReLU(inplace=True)
  (avgpool): AvgPool2d(kernel_size=8, stride=8, padding=0)
  (bn20): BatchNorm1d(64, eps=1e-05, momentum=0.1, affine=True, track_running_stats=True)
  (fc): Linear(in_features=64, out_features=10, bias=False)
  (bn21): BatchNorm1d(10, eps=1e-05, momentum=0.1, affine=True, track_running_stats=True)
  (logsoftmax): LogSoftmax(dim=1)
)
 * Prec@1 35.290 Prec@5 85.340 Loss 3.0410
Pre-trained Prec@1 with 15 layers frozen: 35.290000915527344 	 Loss: 3.041015625

Starting training on SRAM layers...
Epoch: [0][38/196]	LR: 0.1	Loss 0.5474 (0.7737)	Prec@1 81.250 (76.893)	
Epoch: [0][77/196]	LR: 0.1	Loss 0.3552 (0.6462)	Prec@1 87.109 (79.512)	
…
          momentum: 0.9
          weight_decay: 0.0001
          gamma: 0.1
          milestones: [8, 16, 24]
          loss: crossentropy
          optim: sgd
          dropout: 0.5
          print_freq: 5
          resume: 
          evaluate: False
          half: True
          save_every: 10
          gpus: 1
          frozen_layers: 17
DEVICE: cuda
GPU Id(s) being used: 1
==> Building model for resnet20 ...
==> Initializing model with pre-trained parameters ...
==> Load pretrained model form ../pretrained_models/ideal/resnet20fp_cifar10.pth.tar ...
Original model accuracy: 91.93
ResNet_cifar(
  (conv18): Conv2d(64, 64, kernel_size=(3, 3), stride=(1, 1), padding=(1, 1), bias=False)
  (bn18): BatchNorm2d(64, eps=1e-05, momentum=0.1, affine=True, track_running_stats=True)
  (relu18): ReLU(inplace=True)
  (conv19): Conv2d(64, 64, kernel_size=(3, 3), stride=(1, 1), padding=(1, 1), bias=False)
  (bn19): BatchNorm2d(64, eps=1e-05, momentum=0.1, affine=True, track_running_stats=True)
  (relu19): ReLU(inplace=True)
  (avgpool): AvgPool2d(kernel_size=8, stride=8, padding=0)
  (bn20): BatchNorm1d(64, eps=1e-05, momentum=0.1, affine=True, track_running_stats=True)
  (fc): Linear(in_features=64, out_features=10, bias=False)
  (bn21): BatchNorm1d(10, eps=1e-05, momentum=0.1, affine=True, track_running_stats=True)
  (logsoftmax): LogSoftmax(dim=1)
)
 * Prec@1 34.750 Prec@5 84.940 Loss 3.0625
Pre-trained Prec@1 with 17 layers frozen: 34.75 	 Loss: 3.0625

Starting training on SRAM layers...
Epoch: [0][38/196]	LR: 0.1	Loss 0.7144 (0.9175)	Prec@1 76.172 (72.346)	
Epoch: [0][77/196]	LR: 0.1	Loss 0.4973 (0.7725)	Prec@1 82.031 (75.396)	
Epoch: [0][116/196]	LR: 0.1	Loss 0.5229 (0.7147)	Prec@1 78.516 (76.729)	
…
