…
          momentum: 0.9
          weight_decay: 0.0001
          gamma: 0.1
          milestones: [8, 16, 24]
          loss: crossentropy
          optim: sgd
          dropout: 0.5
          print_freq: 5
          resume: 
          evaluate: False
          half: True
          save_every: 10
          gpus: 0
          frozen_layers: 9
DEVICE: cuda
GPU Id(s) being used: 0
==> Building model for resnet20 ...
==> Initializing model with pre-trained parameters ...
==> Load pretrained model form ../pretrained_models/ideal/resnet20fp_cifar10.pth.tar ...
Original model accuracy: 91.93
ResNet_cifar(
  (conv10): Conv2d(32, 32, kernel_size=(3, 3), stride=(1, 1), padding=(1, 1), bias=False)
  (bn10): BatchNorm2d(32, eps=1e-05, momentum=0.1, affine=True, track_running_stats=True)
  (relu10): ReLU(inplace=True)
  (conv11): Conv2d(32, 32, kernel_size=(3, 3), stride=(1, 1), padding=(1, 1), bias=False)
  (bn11): BatchNorm2d(32, eps=1e-05, momentum=0.1, affine=True, track_running_stats=True)
  (relu11): ReLU(inplace=True)
  (conv12): Conv2d(32, 32, kernel_size=(3, 3), stride=(1, 1), padding=(1, 1), bias=False)
  (bn12): BatchNorm2d(32, eps=1e-05, momentum=0.1, affine=True, track_running_stats=True)
  (relu12): ReLU(inplace=True)
  (conv13): Conv2d(32, 32, kernel_size=(3, 3), stride=(1, 1), padding=(1, 1), bias=False)
  (bn13): BatchNorm2d(32, eps=1e-05, momentum=0.1, affine=True, track_running_stats=True)
  (relu13): ReLU(inplace=True)
  (conv14): Conv2d(32, 64, kernel_size=(3, 3), stride=(2, 2), padding=(1, 1), bias=False)
  (bn14): BatchNorm2d(64, eps=1e-05, momentum=0.1, affine=True, track_running_stats=True)
  (relu14): ReLU(inplace=True)
  (conv15): Conv2d(64, 64, kernel_size=(3, 3), stride=(1, 1), padding=(1, 1), bias=False)
  (bn15): BatchNorm2d(64, eps=1e-05, momentum=0.1, affine=True, track_running_stats=True)
  (resconv2): Sequential(
    (0): Conv2d(32, 64, kernel_size=(1, 1), stride=(2, 2), bias=False)
    (1): BatchNorm2d(64, eps=1e-05, momentum=0.1, affine=True, track_running_stats=True)
  )
  (relu15): ReLU(inplace=True)
  (conv16): Conv2d(64, 64, kernel_size=(3, 3), stride=(1, 1), padding=(1, 1), bias=False)
  (bn16): BatchNorm2d(64, eps=1e-05, momentum=0.1, affine=True, track_running_stats=True)
  (relu16): ReLU(inplace=True)
  (conv17): Conv2d(64, 64, kernel_size=(3, 3), stride=(1, 1), padding=(1, 1), bias=False)
  (bn17): BatchNorm2d(64, eps=1e-05, momentum=0.1, affine=True, track_running_stats=True)
  (relu17): ReLU(inplace=True)
  (conv18): Conv2d(64, 64, kernel_size=(3, 3), stride=(1, 1), padding=(1, 1), bias=False)
  (bn18): BatchNorm2d(64, eps=1e-05, momentum=0.1, affine=True, track_running_stats=True)
  (relu18): ReLU(inplace=True)
  (conv19): Conv2d(64, 64, kernel_size=(3, 3), stride=(1, 1), padding=(1, 1), bias=False)
  (bn19): BatchNorm2d(64, eps=1e-05, momentum=0.1, affine=True, track_running_stats=True)
  (relu19): ReLU(inplace=True)
  (avgpool): AvgPool2d(kernel_size=8, stride=8, padding=0)
  (bn20): BatchNorm1d(64, eps=1e-05, momentum=0.1, affine=True, track_running_stats=True)
  (fc): Linear(in_features=64, out_features=10, bias=False)
  (bn21): BatchNorm1d(10, eps=1e-05, momentum=0.1, affine=True, track_running_stats=True)
  (logsoftmax): LogSoftmax(dim=1)
)
 * Prec@1 39.780 Prec@5 87.950 Loss 3.0176
Pre-trained Prec@1 with 9 layers frozen: 39.779998779296875 	 Loss: 3.017578125

Starting training on SRAM layers...
Epoch: [0][38/196]	LR: 0.1	Loss 0.2639 (0.3592)	Prec@1 89.062 (88.231)	
Epoch: [0][77/196]	LR: 0.1	Loss 0.3079 (0.3400)	Prec@1 89.453 (88.612)	
…
          momentum: 0.9
          weight_decay: 0.0001
          gamma: 0.1
          milestones: [8, 16, 24]
          loss: crossentropy
          optim: sgd
          dropout: 0.5
          print_freq: 5
          resume: 
          evaluate: False
          half: True
          save_every: 10
          gpus: 0
          frozen_layers: 11
DEVICE: cuda
GPU Id(s) being used: 0
==> Building model for resnet20 ...
==> Initializing model with pre-trained parameters ...
==> Load pretrained model form ../pretrained_models/ideal/resnet20fp_cifar10.pth.tar ...
Original model accuracy: 91.93
ResNet_cifar(
  (conv12): Conv2d(32, 32, kernel_size=(3, 3), stride=(1, 1), padding=(1, 1), bias=False)
  (bn12): BatchNorm2d(32, eps=1e-05, momentum=0.1, affine=True, track_running_stats=True)
  (relu12): ReLU(inplace=True)
  (conv13): Conv2d(32, 32, kernel_size=(3, 3), stride=(1, 1), padding=(1, 1), bias=False)
  (bn13): BatchNorm2d(32, eps=1e-05, momentum=0.1, affine=True, track_running_stats=True)
  (relu13): ReLU(inplace=True)
  (conv14): Conv2d(32, 64, kernel_size=(3, 3), stride=(2, 2), padding=(1, 1), bias=False)
  (bn14): BatchNorm2d(64, eps=1e-05, momentum=0.1, affine=True, track_running_stats=True)
  (relu14): ReLU(inplace=True)
  (conv15): Conv2d(64, 64, kernel_size=(3, 3), stride=(1, 1), padding=(1, 1), bias=False)
  (bn15): BatchNorm2d(64, eps=1e-05, momentum=0.1, affine=True, track_running_stats=True)
  (resconv2): Sequential(
    (0): Conv2d(32, 64, kernel_size=(1, 1), stride=(2, 2), bias=False)
    (1): BatchNorm2d(64, eps=1e-05, momentum=0.1, affine=True, track_running_stats=True)
  )
  (relu15): ReLU(inplace=True)
  (conv16): Conv2d(64, 64, kernel_size=(3, 3), stride=(1, 1), padding=(1, 1), bias=False)
  (bn16): BatchNorm2d(64, eps=1e-05, momentum=0.1, affine=True, track_running_stats=True)
  (relu16): ReLU(inplace=True)
  (conv17): Conv2d(64, 64, kernel_size=(3, 3), stride=(1, 1), padding=(1, 1), bias=False)
  (bn17): BatchNorm2d(64, eps=1e-05, momentum=0.1, affine=True, track_running_stats=True)
  (relu17): ReLU(inplace=True)
  (conv18): Conv2d(64, 64, kernel_size=(3, 3), stride=(1, 1), padding=(1, 1), bias=False)
  (bn18): BatchNorm2d(64, eps=1e-05, momentum=0.1, affine=True, track_running_stats=True)
  (relu18): ReLU(inplace=True)
  (conv19): Conv2d(64, 64, kernel_size=(3, 3), stride=(1, 1), padding=(1, 1), bias=False)
  (bn19): BatchNorm2d(64, eps=1e-05, momentum=0.1, affine=True, track_running_stats=True)
  (relu19): ReLU(inplace=True)
  (avgpool): AvgPool2d(kernel_size=8, stride=8, padding=0)
  (bn20): BatchNorm1d(64, eps=1e-05, momentum=0.1, affine=True, track_running_stats=True)
  (fc): Linear(in_features=64, out_features=10, bias=False)
  (bn21): BatchNorm1d(10, eps=1e-05, momentum=0.1, affine=True, track_running_stats=True)
  (logsoftmax): LogSoftmax(dim=1)
)
 * Prec@1 34.980 Prec@5 85.260 Loss 3.3828
Pre-trained Prec@1 with 11 layers frozen: 34.97999954223633 	 Loss: 3.3828125

Starting training on SRAM layers...
Epoch: [0][38/196]	LR: 0.1	Loss 0.2457 (0.3920)	Prec@1 93.750 (87.190)	
Epoch: [0][77/196]	LR: 0.1	Loss 0.2542 (0.3442)	Prec@1 90.625 (88.386)	
…
          momentum: 0.9
          weight_decay: 0.0001
          gamma: 0.1
          milestones: [8, 16, 24]
          loss: crossentropy
          optim: sgd
          dropout: 0.5
          print_freq: 5
          resume: 
          evaluate: False
          half: True
          save_every: 10
          gpus: 0
          frozen_layers: 13
DEVICE: cuda
GPU Id(s) being used: 0
==> Building model for resnet20 ...
==> Initializing model with pre-trained parameters ...
==> Load pretrained model form ../pretrained_models/ideal/resnet20fp_cifar10.pth.tar ...
Original model accuracy: 91.93
ResNet_cifar(
  (conv14): Conv2d(32, 64, kernel_size=(3, 3), stride=(2, 2), padding=(1, 1), bias=False)
  (bn14): BatchNorm2d(64, eps=1e-05, momentum=0.1, affine=True, track_running_stats=True)
  (relu14): ReLU(inplace=True)
  (conv15): Conv2d(64, 64, kernel_size=(3, 3), stride=(1, 1), padding=(1, 1), bias=False)
  (bn15): BatchNorm2d(64, eps=1e-05, momentum=0.1, affine=True, track_running_stats=True)
  (resconv2): Sequential(
    (0): Conv2d(32, 64, kernel_size=(1, 1), stride=(2, 2), bias=False)
    (1): BatchNorm2d(64, eps=1e-05, momentum=0.1, affine=True, track_running_stats=True)
  )
  (relu15): ReLU(inplace=True)
  (conv16): Conv2d(64, 64, kernel_size=(3, 3), stride=(1, 1), padding=(1, 1), bias=False)
  (bn16): BatchNorm2d(64, eps=1e-05, momentum=0.1, affine=True, track_running_stats=True)
  (relu16): ReLU(inplace=True)
  (conv17): Conv2d(64, 64, kernel_size=(3, 3), stride=(1, 1), padding=(1, 1), bias=False)
  (bn17): BatchNorm2d(64, eps=1e-05, momentum=0.1, affine=True, track_running_stats=True)
  (relu17): ReLU(inplace=True)
  (conv18): Conv2d(64, 64, kernel_size=(3, 3), stride=(1, 1), padding=(1, 1), bias=False)
  (bn18): BatchNorm2d(64, eps=1e-05, momentum=0.1, affine=True, track_running_stats=True)
  (relu18): ReLU(inplace=True)
  (conv19): Conv2d(64, 64, kernel_size=(3, 3), stride=(1, 1), padding=(1, 1), bias=False)
  (bn19): BatchNorm2d(64, eps=1e-05, momentum=0.1, affine=True, track_running_stats=True)
  (relu19): ReLU(inplace=True)
  (avgpool): AvgPool2d(kernel_size=8, stride=8, padding=0)
  (bn20): BatchNorm1d(64, eps=1e-05, momentum=0.1, affine=True, track_running_stats=True)
  (fc): Linear(in_features=64, out_features=10, bias=False)
  (bn21): BatchNorm1d(10, eps=1e-05, momentum=0.1, affine=True, track_running_stats=True)
  (logsoftmax): LogSoftmax(dim=1)
)
 * Prec@1 30.030 Prec@5 81.860 Loss 3.7031
Pre-trained Prec@1 with 13 layers frozen: 30.029998779296875 	 Loss: 3.703125

Starting training on SRAM layers...
Epoch: [0][38/196]	LR: 0.1	Loss 0.3730 (0.4723)	Prec@1 87.109 (85.036)	
Epoch: [0][77/196]	LR: 0.1	Loss 0.3149 (0.4083)	Prec@1 89.062 (86.594)	
…
          momentum: 0.9
          weight_decay: 0.0001
          gamma: 0.1
          milestones: [8, 16, 24]
          loss: crossentropy
          optim: sgd
          dropout: 0.5
          print_freq: 5
          resume: 
          evaluate: False
          half: True
          save_every: 10
          gpus: 0
          frozen_layers: 15
DEVICE: cuda
GPU Id(s) being used: 0
==> Building model for resnet20 ...
==> Initializing model with pre-trained parameters ...
==> Load pretrained model form ../pretrained_models/ideal/resnet20fp_cifar10.pth.tar ...
Original model accuracy: 91.93
ResNet_cifar(
  (conv16): Conv2d(64, 64, kernel_size=(3, 3), stride=(1, 1), padding=(1, 1), bias=False)
  (bn16): BatchNorm2d(64, eps=1e-05, momentum=0.1, affine=True, track_running_stats=True)
  (relu16): ReLU(inplace=True)
  (conv17): Conv2d(64, 64, kernel_size=(3, 3), stride=(1, 1), padding=(1, 1), bias=False)
  (bn17): BatchNorm2d(64, eps=1e-05, momentum=0.1, affine=True, track_running_stats=True)
  (relu17): ReLU(inplace=True)
  (conv18): Conv2d(64, 64, kernel_size=(3, 3), stride=(1, 1), padding=(1, 1), bias=False)
  (bn18): BatchNorm2d(64, eps=1e-05, momentum=0.1, affine=True, track_running_stats=True)
  (relu18): ReLU(inplace=True)
  (conv19): Conv2d(64, 64, kernel_size=(3, 3), stride=(1, 1), padding=(1, 1), bias=False)
  (bn19): BatchNorm2d(64, eps=1e-05, momentum=0.1, affine=True, track_running_stats=True)
  (relu19): ReLU(inplace=True)
  (avgpool): AvgPool2d(kernel_size=8, stride=8, padding=0)
  (bn20): BatchNorm1d(64, eps=1e-05, momentum=0.1, affine=True, track_running_stats=True)
  (fc): Linear(in_features=64, out_features=10, bias=False)
  (bn21): BatchNorm1d(10, eps=1e-05, momentum=0.1, affine=True, track_running_stats=True)
  (logsoftmax): LogSoftmax(dim=1)
)
 * Prec@1 20.590 Prec@5 77.870 Loss 3.8809
Pre-trained Prec@1 with 15 layers frozen: 20.59000015258789 	 Loss: 3.880859375

Starting training on SRAM layers...
Epoch: [0][38/196]	LR: 0.1	Loss 0.7153 (1.0328)	Prec@1 76.562 (69.591)	
Epoch: [0][77/196]	LR: 0.1	Loss 0.4998 (0.8546)	Prec@1 83.203 (73.127)	
…
          momentum: 0.9
          weight_decay: 0.0001
          gamma: 0.1
          milestones: [8, 16, 24]
          loss: crossentropy
          optim: sgd
          dropout: 0.5
          print_freq: 5
          resume: 
          evaluate: False
          half: True
          save_every: 10
          gpus: 0
          frozen_layers: 17
DEVICE: cuda
GPU Id(s) being used: 0
==> Building model for resnet20 ...
==> Initializing model with pre-trained parameters ...
==> Load pretrained model form ../pretrained_models/ideal/resnet20fp_cifar10.pth.tar ...
Original model accuracy: 91.93
ResNet_cifar(
  (conv18): Conv2d(64, 64, kernel_size=(3, 3), stride=(1, 1), padding=(1, 1), bias=False)
  (bn18): BatchNorm2d(64, eps=1e-05, momentum=0.1, affine=True, track_running_stats=True)
  (relu18): ReLU(inplace=True)
  (conv19): Conv2d(64, 64, kernel_size=(3, 3), stride=(1, 1), padding=(1, 1), bias=False)
  (bn19): BatchNorm2d(64, eps=1e-05, momentum=0.1, affine=True, track_running_stats=True)
  (relu19): ReLU(inplace=True)
  (avgpool): AvgPool2d(kernel_size=8, stride=8, padding=0)
  (bn20): BatchNorm1d(64, eps=1e-05, momentum=0.1, affine=True, track_running_stats=True)
  (fc): Linear(in_features=64, out_features=10, bias=False)
  (bn21): BatchNorm1d(10, eps=1e-05, momentum=0.1, affine=True, track_running_stats=True)
  (logsoftmax): LogSoftmax(dim=1)
)
 * Prec@1 20.140 Prec@5 77.020 Loss 3.8711
Pre-trained Prec@1 with 17 layers frozen: 20.139999389648438 	 Loss: 3.87109375

Starting training on SRAM layers...
Epoch: [0][38/196]	LR: 0.1	Loss 0.8633 (1.2205)	Prec@1 69.531 (63.431)	
Epoch: [0][77/196]	LR: 0.1	Loss 0.6426 (1.0161)	Prec@1 76.953 (67.763)	
…
