…
          frozen_layers: 11
Savedir:  ../pretrained_models/frozen/x64-8b/rram/cifar10/resnet18
DEVICE: cuda
GPU Id(s) being used: 2
==> Building model for resnet18 ...
==> Initializing model with pre-trained parameters (except classifier)...
==> Load pretrained model form ../pretrained_models/ideal/resnet18fp_imnet.pth.tar ...
Original model accuracy on ImageNet: 69.93189239501953
Train path:  /home/nano01/a/esoufler/activations/x64-8b/rram/one_batch/cifar10/resnet18/train/relu11
Test path:  /home/nano01/a/esoufler/activations/x64-8b/rram/one_batch/cifar10/resnet18/test/relu11
ResNet18(
  (conv12): Conv2d(256, 256, kernel_size=(3, 3), stride=(1, 1), padding=(1, 1), bias=False)
  (bn12): BatchNorm2d(256, eps=1e-05, momentum=0.1, affine=True, track_running_stats=True)
  (relu12): ReLU(inplace=True)
  (conv13): Conv2d(256, 256, kernel_size=(3, 3), stride=(1, 1), padding=(1, 1), bias=False)
  (bn13): BatchNorm2d(256, eps=1e-05, momentum=0.1, affine=True, track_running_stats=True)
  (relu13): ReLU(inplace=True)
  (conv14): Conv2d(256, 512, kernel_size=(3, 3), stride=(2, 2), padding=(1, 1), bias=False)
  (bn14): BatchNorm2d(512, eps=1e-05, momentum=0.1, affine=True, track_running_stats=True)
  (resconv3): Sequential(
    (0): Conv2d(256, 512, kernel_size=(1, 1), stride=(2, 2), bias=False)
    (1): BatchNorm2d(512, eps=1e-05, momentum=0.1, affine=True, track_running_stats=True)
    (2): ReLU(inplace=True)
  )
  (relu14): ReLU(inplace=True)
  (conv15): Conv2d(512, 512, kernel_size=(3, 3), stride=(1, 1), padding=(1, 1), bias=False)
  (bn15): BatchNorm2d(512, eps=1e-05, momentum=0.1, affine=True, track_running_stats=True)
  (relu15): ReLU(inplace=True)
  (conv16): Conv2d(512, 512, kernel_size=(3, 3), stride=(1, 1), padding=(1, 1), bias=False)
  (bn16): BatchNorm2d(512, eps=1e-05, momentum=0.1, affine=True, track_running_stats=True)
  (relu16): ReLU(inplace=True)
  (conv17): Conv2d(512, 512, kernel_size=(3, 3), stride=(1, 1), padding=(1, 1), bias=False)
  (bn17): BatchNorm2d(512, eps=1e-05, momentum=0.1, affine=True, track_running_stats=True)
  (relu17): ReLU(inplace=True)
  (avgpool): AvgPool2d(kernel_size=7, stride=7, padding=0)
  (bn18): BatchNorm1d(512, eps=1e-05, momentum=0.1, affine=True, track_running_stats=True)
  (fc): Linear(in_features=512, out_features=10, bias=False)
  (bn19): BatchNorm1d(10, eps=1e-05, momentum=0.1, affine=True, track_running_stats=True)
  (logsoftmax): LogSoftmax(dim=1)
)
 * Prec@1 12.600 Prec@5 49.830 Loss 2.3145
Avg Loading time: 0.0587 seconds
Avg Batch time: 0.0963 seconds

Pre-trained Prec@1 with 11 layers frozen: 12.59999942779541 	 Loss: 2.314453125

Starting training on SRAM layers...
